Project/LSTM预测股价/lst_ft.pth (torch_old, 69876 bytes, 5 tensors)

lstm.weight_ih_l0 f4 [256, 1]
0	0x3e385880	0.1800251
1	0x3ce96f5c	0.028495483
2	0x3d9bc4e4	0.07605913
3	0x3e23aacd	0.15983124
4	0x3e330adf	0.17484616
5	0x3db203c1	0.08692122
6	0x3d82f197	0.06393736
7	0x3dff7762	0.12473942
8	0xbcaf2b75	-0.021383027
9	0x3dab1873	0.08354273
10	0x3de3b628	0.11118728
11	0xbd5135be	-0.051076643
12	0x3e40c062	0.18823388
13	0x3e042a2d	0.12906714
14	0x3d179f8d	0.037017394
15	0x3d827fef	0.06372058
16	0x3d472691	0.048620764
17	0x3d8fd27f	0.07022571
18	0x3d92c984	0.07167342
19	0xbd143ace	-0.036188893
20	0x3e5101d3	0.20410852
21	0x3dc8b213	0.0979959
22	0x3e3e5140	0.18585682
23	0xbcec65c5	-0.028857121
24	0x3dbbf7ff	0.09178161
25	0x3e06a793	0.13149862
26	0x3e0fe59d	0.14052434
27	0xbdd61a10	-0.1045419
28	0x3d6d53b1	0.057941142
29	0x3db4ae64	0.08822325
30	0x3d3e107b	0.046402436
31	0x3d111452	0.03541977
32	0x3ba87898	0.005141329
33	0xbd8ea515	-0.06965081
34	0x3d9dee47	0.077114634
35	0x3d7c241b	0.06155787
36	0xbc758424	-0.014985118
37	0x3e2203a8	0.15821707
38	0x3d5e5b7a	0.054286458
39	0xbd8b1c56	-0.06792514
40	0x3e1f0a24	0.15531212
41	0x3d04b690	0.032400668
42	0x3cc35f17	0.023849053
43	0x3d893068	0.06698686
44	0x3d7875e0	0.06065929
45	0x3e8624c7	0.26199934
46	0x3be5c5c4	0.007012101
47	0x3c48f50a	0.012265453
48	0x3e2155b3	0.15755348
49	0x3e71896d	0.2358758
50	0x3e51ed56	0.20500693
51	0x3e203df1	0.15648629
52	0x3e3091b5	0.17243083
53	0x3e3ad0bc	0.18243688
54	0x3bf09c0e	0.007342822
55	0x3d181874	0.037132695
56	0xbdd27141	-0.10275508
57	0x3d3ca7a5	0.046058316
58	0xbe0bb1f3	-0.13642101
59	0x3dd8adb2	0.10580005
60	0x3e3d79a6	0.18503436
61	0x3c9a95fb	0.018870344
62	0xbe219785	-0.15780456
63	0x3d961b22	0.07329394
64	0x3c817ba7	0.015806032
65	0x3da25c6b	0.079277836
66	0x3de18ca3	0.110131525
67	0x3ced9363	0.029000944
68	0x3d8a3d36	0.06749956
69	0xbc81dac7	-0.015851391
70	0x3cf380c6	0.02972449
71	0x3c2f8cc4	0.0107147135
72	0x3e064429	0.13111939
73	0x3dfdbfc9	0.12390096
74	0xbd871d91	-0.06597436
75	0xbdcc4c94	-0.099755436
76	0x3d775759	0.060386036
77	0xbc8a00b9	-0.016846048
78	0x3e0aa4bb	0.13539402
79	0xbd4cca53	-0.04999764
80	0xbdd773e8	-0.10520154
81	0x3e15219d	0.14563604
82	0x3d89744c	0.06711635
83	0xbc720b20	-0.01477316
84	0x3e7346d2	0.23757485
85	0x3e748142	0.23877433
86	0x3deedf33	0.116636656
87	0xbd1b186c	-0.037865087
88	0x3dd7c80f	0.10536205
89	0x3d84051b	0.06446286
90	0xbd1bca91	-0.03803498
91	0xbdd63e01	-0.10461045
92	0x3d6a864d	0.057256985
93	0x3cca95d0	0.02472964
94	0xbd876e23	-0.06612804
95	0x3d544966	0.05182781
96	0x3be4300e	0.0069637364
97	0xbc084bfa	-0.0083188955
98	0x3cc0127c	0.023446314
99	0x3e3dda1f	0.18540238
100	0xbded6fce	-0.11593591
101	0x3e31fb7d	0.17381091
102	0x3d52bcc8	0.051449567
103	0x3ce65615	0.028117219
104	0x3e3c5e66	0.18395385
105	0x3d996ce6	0.07491474
106	0x3e509023	0.20367484
107	0xbd363250	-0.044481575
108	0xbdcc3f71	-0.09973038
109	0x3e66ecbc	0.22551244
110	0x3d025c5d	0.031826366
111	0xb7c8f2da	-2.3954944e-05
112	0x3d5ca9d2	0.05387289
113	0x3cc2e919	0.02379279
114	0x3e61b334	0.22041017
115	0x3e21c716	0.15798602
116	0x3db5f2af	0.08884179
117	0x3db9da4d	0.09074841
118	0xbd9a56ca	-0.07536085
119	0x3ded50ef	0.115877025
120	0xbd9db305	-0.07700161
121	0xbdc34e32	-0.09536399
122	0x3d0a601f	0.033783074
123	0x3e743afd	0.23850627
124	0xbc3874ad	-0.011258286
125	0x3e345b2f	0.17612909
126	0xbe827f98	-0.2548797
127	0x3d96e6e5	0.073682584
128	0xbe5d77f7	-0.21627794
129	0x3cefbcd1	0.02926484
130	0xbe037469	-0.12837376
131	0x3d5465c6	0.05185487
132	0xbe8255f1	-0.25456193
133	0x3e564599	0.20924987
134	0x3e89eee4	0.26940072
135	0x3e186f73	0.14886265
136	0x3c820f50	0.015876442
137	0xbdb13336	-0.08652346
138	0xbe7ef4b8	-0.2489804
139	0xbe0e9321	-0.13923313
140	0x3db21391	0.08695138
141	0x3e7438f3	0.2384985
142	0x3e350a1d	0.17679639
143	0xbd05c0a4	-0.03265442
144	0x3b97a3df	0.0046276893
145	0x3e1801e4	0.14844471
146	0xbe672c79	-0.22575559
147	0x3d454367	0.048159983
148	0xbe3c22e2	-0.18372682
149	0x3e8c4844	0.27398884
150	0xbdf026cd	-0.11726151
151	0xbd712e45	-0.058882017
152	0xbe252747	-0.16128264
153	0x3bf6bebd	0.007530062
154	0x3d4a7c95	0.049435217
155	0x3dea3805	0.11436466
156	0x3c8842a9	0.016633349
157	0xbe85ff1e	-0.261712
158	0x3e8f1f2a	0.27953464
159	0xbe3dd98e	-0.18540022
160	0x3e29d23a	0.16584101
161	0x3d11f8d2	0.035637684
162	0x3e4b14f0	0.19832206
163	0x3de0058e	0.109385595
164	0xbe1fc37e	-0.15601918
165	0x3d6b352a	0.057423748
166	0x3df7746a	0.12082751
167	0x3d1d189a	0.03835354
168	0x3e84bc79	0.25925043
169	0x3e47dd87	0.195181
170	0xbe75438d	-0.2395155
171	0xbe8c00e8	-0.2734444
172	0xbd0eba57	-0.034845676
173	0xbc53aa87	-0.012919075
174	0x3dcea823	0.10090663
175	0xbe6c47c2	-0.23074248
176	0x3d5cf68b	0.05394606
177	0x3e7eb7e4	0.24874836
178	0x3e75c4b8	0.24000823
179	0xbe2b1427	-0.16706906
180	0x3c2b858c	0.010468852
181	0xbe793cb1	-0.24339558
182	0xbe046f2f	-0.12933038
183	0x3e475940	0.1946764
184	0x3d15452d	0.036442924
185	0xbd895b93	-0.067069195
186	0x3b7dc879	0.0038724227
187	0x3e04346f	0.12910627
188	0x3e665d95	0.22496636
189	0xbe5cc82d	-0.21560736
190	0xbe228d55	-0.15874226
191	0xbe7af6cb	-0.24508207
192	0x3df0c95f	0.117571585
193	0x3e324a92	0.17411259
194	0x3e06a060	0.13147116
195	0x3d93e550	0.07221472
196	0x3d25ca6d	0.04047625
197	0x3c3eb5da	0.0116400365
198	0x3d1225b8	0.035680503
199	0x3d1cfb4b	0.03832559
200	0xbd655767	-0.055991556
201	0x3e50221c	0.20325512
202	0x3db64ac3	0.089009784
203	0x3ae6cc3a	0.0017608472
204	0x3c84adcc	0.016196154
205	0x3e2078be	0.1567106
206	0x3e6410ad	0.22271986
207	0x3dc4af97	0.096038036
208	0xbe296f83	-0.16546445
209	0xbc734a91	-0.014849321
210	0x3ddee8cc	0.10884246
211	0x3d28a616	0.041174017
212	0x3e1aab82	0.15104488
213	0x3e241e21	0.16027118
214	0x3e6acd31	0.22929837
215	0xbda06c35	-0.07833139
216	0x3e401cfd	0.18761058
217	0x3d00188b	0.031273406
218	0x3a4cedf7	0.0007817442
219	0xbe274d03	-0.16337971
220	0xbc38810a	-0.011261234
221	0x3e16df1b	0.14733545
222	0x3e049c4d	0.12950249
223	0x3cbdb980	0.023159742
224	0x3dea0e18	0.114284694
225	0x3dec506e	0.11538778
226	0x3b628049	0.0034561327
227	0x3db20580	0.08692455
228	0x3dbf5699	0.09342689
229	0x3d976690	0.07392609
230	0x3e22170d	0.15829106
231	0xbc83ee2b	-0.016104778
232	0x3cb5da0f	0.022198705
233	0x3e04d282	0.12970927
234	0x3d952374	0.07282153
235	0x3e16bea1	0.14721157
236	0x3ccd994f	0.025097517
237	0x3d7729ef	0.060342725
238	0xbd2a26d8	-0.04154095
239	0x3b8bd835	0.0042677172
240	0xbd137ec6	-0.036009572
241	0x3dd0c0b9	0.10193009
242	0x3dbcdc81	0.09221745
243	0x3dfd3bad	0.12364898
244	0x3e1bea00	0.15225983
245	0xbcb2d3c0	-0.021829486
246	0x3d4a926e	0.049456052
247	0x3e47ba2d	0.19504614
248	0xbb5d998e	-0.003381345
249	0xbb9277ff	-0.004469871
250	0xbc8a92b3	-0.016915655
251	0x3e4461a4	0.19177872
252	0x3d9326e1	0.0718515
253	0xba9787af	-0.0011560823
254	0xbe168501	-0.14699174
255	0xbd5bd945	-0.053674

lstm.weight_hh_l0 f4 [256, 64]
0	0xbdcedea4	-0.10101059
1	0x38b35a35	8.5521875e-05
2	0x3c53bac7	0.012922949
3	0x3d411b63	0.04714526
4	0x3dba9b1a	0.091116145
5	0xbda227b1	-0.07917727
6	0xbd734be1	-0.059398536
7	0xbcce74a9	-0.025202112
8	0xbcbdafff	-0.02315521
9	0x3dd22eb9	0.10262818
10	0xbde4aef0	-0.11166179
11	0xbaf84e6e	-0.0018944272
12	0x3be45649	0.006968294
13	0x3df81553	0.12113442
14	0xbd264caf	-0.040600475
15	0x3df5eda4	0.12008217
16	0xbe08399e	-0.13303229
17	0x3c866410	0.016405135
18	0xbc2ad079	-0.01042568
19	0xbc187932	-0.009306239
20	0x3d888db3	0.06667652
21	0xbd0bcc8f	-0.03413063
22	0xbdabfc67	-0.08397751
23	0xbc022f9c	-0.007945921
24	0x3ce83f6d	0.028350556
25	0x3d1c07bb	0.03809331
26	0x3d0789e8	0.033090502
27	0xbdacd61b	-0.08439275
28	0xbdeeb35c	-0.11655304
29	0xbd9eb92b	-0.07750162
30	0x3d888045	0.066650905
31	0xbbac3b40	-0.0052560866
32	0x3d7ef9b3	0.06224985
33	0x3d8dd442	0.069252506
34	0xbd852c72	-0.06502618
35	0xbbca4c65	-0.0061736577
36	0x3ccc899f	0.024967967
37	0xbdbc058b	-0.09180745
38	0x3807ea5d	3.2404776e-05
39	0x3c114a1b	0.008867766
40	0xbd822dbd	-0.0635638
41	0x3c1ec81d	0.009691265
42	0x3d1cc43d	0.038273085
43	0x3d032935	0.03202172
44	0x3a2435c3	0.00062641146
45	0x3cee19b6	0.029064994
46	0x3caaa102	0.020828728
47	0xbd006068	-0.03134194
48	0xbcd9020a	-0.02649023
49	0x3dba5490	0.0909816
50	0x3cbb52a1	0.022866549
51	0xbd2f5d89	-0.04281381
52	0xbe03fb6f	-0.12888883
53	0xbdccc857	-0.09999149
54	0x3d88204f	0.066467874
55	0x3d8fd3a6	0.070227906
56	0x3d977d07	0.07396894
57	0x3db422bb	0.08795687
58	0x3c2c9fe8	0.0105361715
59	0xbd6867d0	-0.05673963
60	0xbd7392fa	-0.05946634
61	0x3d940353	0.072271965
62	0xbd39e893	-0.045387816
63	0x3d8d7c43	0.06908467
64	0xbde162ca	-0.11005171
65	0x3c22250d	0.009896529
66	0x3cd43008	0.02590181
67	0x3c7301bd	0.014831957
68	0x3c6fa7db	0.014627422
69	0x3d52f227	0.051500466
70	0xbc805871	-0.015667172
71	0xbd144263	-0.036196124
72	0x3dc4d93b	0.09611746
73	0xbc7abb92	-0.015303509
74	0xbd1448dd	-0.0362023
75	0xbd6ca4b4	-0.05777426
76	0x3d7a9f63	0.06118716
77	0xbdb904c7	-0.09034114
78	0x3dfd39b6	0.12364523
79	0x3c387f60	0.011260837
80	0xbdac41c4	-0.08410981
81	0xbcf212e0	-0.029550016
82	0x3bc6961a	0.006060374
83	0xbb3e36f1	-0.0029024447
84	0xbdd166f5	-0.102247156
85	0x3decd467	0.1156395
86	0xbdc63826	-0.09678678
87	0x3c67e13a	0.014152819
88	0x3d156219	0.036470506
89	0xbd8dc739	-0.06922764
90	0xbdf573be	-0.11984967
91	0x3de88d8f	0.11355125
92	0x3de05344	0.10953382
93	0x3d97ffdd	0.07421849
94	0x3d459303	0.048235904
95	0x3d9eb838	0.07749981
96	0xbca03921	-0.019558491
97	0x3de22e33	0.11043968
98	0x3dbb17d4	0.09135404
99	0xbc04c91c	-0.008104589
100	0xbcdfc00e	-0.027313258
101	0xbde4bad3	-0.111684464
102	0x3d35810b	0.044312518
103	0x3d13c98c	0.036080882
104	0xbdc53fef	-0.09631335
105	0x3debac65	0.11507491
106	0xbdc09b40	-0.094046116
107	0x3c789e0a	0.015174398
108	0x3cb7a2d1	0.022416504
109	0x3d2efd34	0.042721942
110	0xbbb80071	-0.005615287
111	0xbac9fd0d	-0.0015410498
112	0xbd5c8023	-0.05383314
113	0xbcfb5cca	-0.030683894
114	0x3d033f7d	0.03204297
115	0xbe035030	-0.12823558
116	0xbd78b020	-0.06071484
117	0x3d37afb2	0.04484529
118	0x3c3a531e	0.011372356
119	0xbdbb9bc8	-0.09160572
120	0xbda9af29	-0.08285362
121	0x3db89912	0.09013571
122	0xba323d2d	-0.0006799277
123	0xbc7cb9ac	-0.015425127
124	0x3d3fb829	0.04680649
125	0x3c3476fc	0.011014696
126	0xbdbacc47	-0.09120994
127	0x3d3ffe0f	0.04687315
128	0x3c808187	0.015686763
129	0x3d2fa01c	0.0428773
130	0xbd4329e3	-0.04764737
131	0x3c90e441	0.017686965
132	0xbd8d1bb8	-0.068900526
133	0xbda90ac1	-0.08254004
134	0x3c80e4ce	0.015734103
135	0x3db98cea	0.0906008
136	0x3cb34100	0.02188158
137	0xbe020151	-0.12695815
138	0xbde766b4	-0.11298886
139	0x3c3b92a1	0.011448533
140	0xbcaa0403	-0.020753866
141	0x3dbafd96	0.09130399
142	0xbda3dd52	-0.08001198
143	0xbdf8d91d	-0.12150786
144	0xbd88a247	-0.06671577
145	0x3c1ab2e6	0.009442067
146	0xbd866e15	-0.06563965
147	0x3de2f8e5	0.11082629
148	0xbdcf2343	-0.101141475
149	0xbd9e3c88	-0.07726389
150	0xbda0d13f	-0.078524105
151	0xbde01ac1	-0.10942603
152	0xbdce18ab	-0.10063299
153	0x3ce2ec85	0.027700672
154	0xbc8e03d9	-0.01733582
155	0x3ddf8a20	0.10915017
156	0xbc3ac2f1	-0.011399017
157	0xbd48887d	-0.04895829
158	0xbd6398ee	-0.055565767
159	0x3d116b0d	0.035502482
160	0x3de53483	0.111916564
161	0xbdbde2c7	-0.0927177
162	0x3e0e7f97	0.13915859
163	0xbd863f9b	-0.065551005
164	0x3d886682	0.06660177
165	0x3dcc1940	0.099657536
166	0x3de6635b	0.11249419
167	0x3db4642c	0.08808169
168	0x3dc858f6	0.09782593
169	0xbcab24f4	-0.020891644
170	0xbd681e80	-0.056669712
171	0xbdfb5c3f	-0.12273454
172	0xbd153060	-0.036423087
173	0xbdd97e28	-0.106197655
174	0x3ca949af	0.020665018
175	0x3d157102	0.036484726
176	0x3dc9f5bf	0.098613255
177	0xbc30e98b	-0.0107978685
178	0x3de28bb6	0.11061804
179	0x3d97565e	0.0738952
180	0xbd3923cf	-0.045200165
181	0x3d697207	0.05699351
182	0x3d9e686a	0.07734759
183	0xbddf0d72	-0.10891236
184	0x3db52d67	0.088465504
185	0xbd77ca53	-0.060495686
186	0x3dca1e9b	0.09869119
187	0x3c95724d	0.01824298
188	0xbda51620	-0.08060861
189	0xbcd47d1b	-0.025938561
190	0x3dd6c197	0.10486143
191	0x3d0d4380	0.0344882
192	0x3de1ff94	0.11035076
193	0x3db2c3af	0.0872873
194	0xbd313765	-0.04326572
195	0xbd7b8236	-0.061403476
196	0x3dd420e1	0.10357834
197	0xbd2cf6af	-0.042227443
198	0xbd746c8c	-0.05967383
199	0xbd85983f	-0.06523179
200	0x3de795d3	0.113078736
201	0x3ba2b231	0.0049650897
202	0x3d876a9a	0.066121295
203	0xbd733d5c	-0.05938469
204	0xbc92a736	-0.017901998
205	0xbd83eaf9	-0.06441302
206	0x3d860bb5	0.06545202
207	0x3d20a4f0	0.039219797
208	0x3db2590a	0.08708389
209	0x3d8f2f15	0.06991402
210	0xbda6e903	-0.08149912
211	0x3dca25f3	0.098705195
212	0x3db48b36	0.08815615
213	0x3cc76d7c	0.024344198
214	0x3cf548f5	0.029942015
215	0xbdb1a134	-0.08673325
216	0x3de5e333	0.112249754
217	0x3c9b57ea	0.01896282
218	0x3d800baa	0.06252225
219	0x3d960329	0.073248215
220	0xbdba3381	-0.09091855
221	0x3de972a1	0.11398817
222	0xbc4e58dc	-0.012594428
223	0x3ce8e94d	0.028431559
224	0x3c0aa62b	0.008462469
225	0x3d0cd6d3	0.03438456
226	0x3e11d45d	0.14241166
227	0x3cf8c025	0.03036506
228	0x3cec1546	0.028818738
229	0x3d7c87a1	0.061652783
230	0x3dc31c08	0.09526831
231	0xbb9fd90b	-0.0048781685
232	0x3d5097e8	0.05092612
233	0x3d93ddaf	0.07220017
234	0x3cbea1a0	0.023270428
235	0xbbe119f6	-0.00686955
236	0xbdbdad2a	-0.09261544
237	0x3d8d9ad9	0.069143005
238	0xbd20fbe4	-0.03930272
239	0x3d645adb	0.05575071
240	0x3d86fd17	0.06591242
241	0x3c2a0537	0.01037722
242	0xbdb4761c	-0.0881159
243	0xbdc10157	-0.09424084
244	0x3c58a596	0.0132230725
245	0xbd4bf9a5	-0.049798626
246	0xbca9c3b2	-0.020723198
247	0xbdb5fa0c	-0.08885583
248	0xbceae82f	-0.028675167
249	0xbda3e673	-0.08002939
250	0xbda86777	-0.08222859
251	0x3b976e53	0.004621306
252	0xbdb5d855	-0.08879153
253	0x3ce77c66	0.02825756
254	0xbd6990eb	-0.05702297
255	0x3d4b292c	0.04959981

lstm.bias_ih_l0 f4 [256]
0	0x3de8a929	0.1136039
1	0xbd8c922b	-0.06863817
2	0x3dd8f5d3	0.10593762
3	0xbd72e867	-0.059303667
4	0xbd77134c	-0.060321137
5	0x3c9e8b4f	0.019353537
6	0xbd8c8ec6	-0.06863169
7	0xbc50ff20	-0.012756139
8	0xbdc09586	-0.09403519
9	0x3d1fb0c4	0.038986936
10	0x3d1df7e6	0.038566492
11	0xbd324619	-0.04352388
12	0x3dfd7488	0.12375742
13	0x3ad9ff10	0.0016631801
14	0x3df6e766	0.120558545
15	0xbdd8fa9f	-0.10594677
16	0x3d845b36	0.064627096
17	0xbcbed0b0	-0.02329287
18	0x3d58fe90	0.052977145
19	0xbde52562	-0.11188771
20	0xbd75ed9d	-0.06004106
21	0x3e1ed5e6	0.15511283
22	0x3d4a7ace	0.049433522
23	0x3dbb7b19	0.091543384
24	0x3d442f05	0.047896404
25	0xbdce63a6	-0.100776
26	0xbdb24cfc	-0.0870609
27	0xbd3ec29b	-0.04657231
28	0xbcc94934	-0.024571039
29	0xbc3c59f8	-0.01149606
30	0xbcc5a774	-0.0241277
31	0xbd7ee9bd	-0.06223463
32	0x3dbdb440	0.092628956
33	0x3da755b4	0.081706434
34	0x3dd3deed	0.10345254
35	0x3d34bf1b	0.044127565
36	0xbd75d5e3	-0.06001843
37	0x3dc5801f	0.09643578
38	0xbcb36cd6	-0.021902483
39	0x3dca417b	0.09875771
40	0xbd953e2f	-0.07287251
41	0xbd56b883	-0.052422058
42	0x3db1fe3f	0.08691072
43	0x3da4ff70	0.08056533
44	0x3cc591be	0.024117347
45	0xbe148bba	-0.14506426
46	0x3c8334b1	0.016016336
47	0xbdbde8a1	-0.09272886
48	0x3d1773a7	0.03697553
49	0xbd8c0d10	-0.06838429
50	0x3dd2f63d	0.103008725
51	0xbdba7e7f	-0.091061585
52	0x3d84d769	0.06486399
53	0xbde99f02	-0.114072815
54	0xbde7b3a3	-0.1131356
55	0x3d0e5247	0.034746435
56	0xbe2aac3b	-0.16667263
57	0x3dbd7e09	0.09252555
58	0x3cf05189	0.029335754
59	0xbb86127d	-0.0040915594
60	0xbd2b5b6a	-0.041835226
61	0x3ded2b5f	0.11580538
62	0xbbca0141	-0.0061647003
63	0x3cf913d2	0.030404959
64	0x3d62f231	0.055406753
65	0x3cf8cf26	0.030372214
66	0x3d0630bd	0.032761324
67	0x3d7bc275	0.061464746
68	0xbcd2f3d1	-0.025751026
69	0xbdc3d123	-0.09561374
70	0x3dceccda	0.10097666
71	0xbd31299d	-0.043252576
72	0x3c187fe4	0.009307835
73	0xbdcc1b5c	-0.09966156
74	0xbdaa60a6	-0.083192155
75	0xbde0162a	-0.109417275
76	0x3d202357	0.039096203
77	0xbde02746	-0.10944991
78	0x3d8d2090	0.068909764
79	0xbd2353d7	-0.039874878
80	0xbd8e51f0	-0.06949222
81	0xbdfc0fd6	-0.12307708
82	0xbd4d9afe	-0.05019664
83	0xbc46aa44	-0.012125555
84	0x3ddef32a	0.108862236
85	0x3e084c9b	0.13310473
86	0x3c9b5a67	0.018964006
87	0xbd746a7d	-0.059671868
88	0x3db94bb1	0.0904764
89	0x3ce5cfd1	0.028053196
90	0xbd8ba1a0	-0.06817937
91	0xbc6085ef	-0.013703807
92	0xbaf71474	-0.00188507
93	0xbb1173e8	-0.002219433
94	0xbc74c471	-0.014939413
95	0x3d09661a	0.033544637
96	0x3e00f505	0.12593468
97	0xbd112212	-0.035432883
98	0x3d9ec67e	0.07752703
99	0x3c9efe41	0.019408347
100	0x3d4b700c	0.049667403
101	0xbdb29456	-0.08719699
102	0xbc9cfb83	-0.019162899
103	0xbdceb787	-0.10093599
104	0x3dcfac0c	0.10140237
105	0x3c935730	0.01798591
106	0x3d924ebd	0.071439244
107	0x3d8aed99	0.067835994
108	0xbc966027	-0.018356396
109	0xbde7d4f0	-0.113199115
110	0xbdd2667f	-0.10273456
111	0xbd3b8cf9	-0.04578874
112	0xbd6eea3d	-0.058328856
113	0xbdb7ea1b	-0.08980199
114	0xbdc0fcf1	-0.09423245
115	0xbd783218	-0.060594648
116	0x3dddd9d1	0.10832561
117	0xbcbf9568	-0.023386672
118	0x3d19c84a	0.037544526
119	0xbd2216b1	-0.03957242
120	0xbe0db02f	-0.1383674
121	0xbd8297aa	-0.06376584
122	0x3d972476	0.07380001
123	0xbd837193	-0.06418147
124	0x3d8ecaab	0.069722496
125	0xbcd1725e	-0.02556723
126	0xbe2f8ae2	-0.17142823
127	0xbe1a2984	-0.150549
128	0xbce0588a	-0.027385969
129	0xbd210b46	-0.03931739
130	0xbd93d457	-0.07218235
131	0x3b850288	0.0040591396
132	0x3c9917b7	0.018688066
133	0x3dd8777b	0.10569664
134	0xbbbc5014	-0.0057468507
135	0x3c08ad79	0.00834214
136	0x3d9e4fba	0.077300504
137	0xbdc519fc	-0.09624097
138	0x3d9f6faf	0.07784974
139	0x3db35ec0	0.087583065
140	0x3d6e3d60	0.058164
141	0xbda5d1b5	-0.08096639
142	0xbbde4c6e	-0.0067840135
143	0x3d95a9a7	0.07307749
144	0xbd7e3a2f	-0.062067207
145	0xbd2c15c8	-0.04201296
146	0xbdcde95a	-0.10054274
147	0x3e0188ab	0.12649791
148	0x3dd28e0b	0.10280999
149	0x3d18138b	0.037128013
150	0x3d7546af	0.059881862
151	0xbc1a7c23	-0.009429011
152	0x3d97f692	0.074200764
153	0xbd3d5841	-0.046226744
154	0x3da7a9a6	0.08186655
155	0x3d93a3fe	0.072090134
156	0xbc9fb6e6	-0.019496392
157	0x3d19a521	0.037510995
158	0xbd928d6b	-0.071558796
159	0x3d8ac177	0.06775182
160	0x3d59a456	0.05313524
161	0x3cadaf4b	0.02120175
162	0xbdd95a36	-0.106129095
163	0xbc3b7a8b	-0.011442791
164	0xbd23f5aa	-0.040029205
165	0xbd494365	-0.049136538
166	0x3da38fbb	0.07986399
167	0xbdadaed6	-0.08480613
168	0xbd9488a2	-0.07252623
169	0x3dbb5ded	0.09148774
170	0x3c27c49f	0.010239749
171	0x3dfe91f6	0.124301836
172	0x3d672f1d	0.056441415
173	0xbd732f4a	-0.05937127
174	0xbbd2be6a	-0.0064313905
175	0xbcf10916	-0.029423278
176	0x3dad47be	0.08460949
177	0x3d7db404	0.061939254
178	0xbd3558da	-0.04427419
179	0xbd2ad6a3	-0.0417086
180	0x3dc3e5c5	0.095653094
181	0xbcf6aed2	-0.030112658
182	0x3cb8db44	0.022565491
183	0xbd3eedd7	-0.04661354
184	0x3d822fdf	0.06356787
185	0x3d0bc5c0	0.034124136
186	0x3da3fc6e	0.080071315
187	0xbb507dbd	-0.0031813227
188	0x3d84f361	0.06491733
189	0x3d844c3e	0.064598545
190	0x3dce9431	0.10086859
191	0x3c6ba281	0.014382006
192	0x3cc26228	0.023728445
193	0xbe010808	-0.1260072
194	0xbdc4a822	-0.09602381
195	0xbd747578	-0.05968234
196	0x3d08d510	0.033406317
197	0x3d9ed4bd	0.0775542
198	0x3da6cea6	0.08144884
199	0x3d8510e4	0.06497362
200	0x3ce274ea	0.02764364
201	0x3d31593a	0.043297984
202	0x3d7c0008	0.061523467
203	0xbd658fdf	-0.05604541
204	0x3d889598	0.06669158
205	0x3d494796	0.049140535
206	0x3d9f40b5	0.07776014
207	0x3d5c1487	0.053730514
208	0xbe1d4d3c	-0.15361494
209	0xbdc01996	-0.0937988
210	0x3e1704f2	0.1474798
211	0xbd9d793b	-0.076891385
212	0xbdaac9a5	-0.08339242
213	0x3d9532af	0.07285058
214	0x3d922a68	0.071369946
215	0xbb384b5b	-0.0028121087
216	0x3991d28b	0.00027813422
217	0xbc9000f8	-0.017578587
218	0x3dd7f0f1	0.10544003
219	0x3d116771	0.03549904
220	0xbd1312cf	-0.03590661
221	0x3dd677ed	0.10472093
222	0x3dc3e0c2	0.095643535
223	0x3ce51239	0.02796279
224	0x3cfbf88b	0.030758163
225	0x3c24b1c3	0.010052147
226	0x3dc792b0	0.09744775
227	0x3dcaacdf	0.09896254
228	0xbda19097	-0.078889064
229	0x3df88828	0.12135345
230	0xbcdcecb9	-0.026968347
231	0x3dfcacb6	0.123376295
232	0x3dd3753b	0.10325094
233	0x3de076e3	0.10960176
234	0x3d16d0af	0.03682011
235	0x3e35db87	0.17759524
236	0xbdecf58a	-0.1157027
237	0xbe0bd0dc	-0.13653892
238	0xbcf82510	-0.03029111
239	0x3dc84e36	0.097805426
240	0x3dcc6f65	0.09982184
241	0xba89babc	-0.0010507922
242	0x3da192b7	0.07889312
243	0x3e07581d	0.13217206
244	0xbdd12ee2	-0.1021402
245	0xbd473e60	-0.04864347
246	0xbdd2bbe3	-0.10289743
247	0xbcdcb0e0	-0.02693981
248	0xbde8a841	-0.11360217
249	0x3d2d67b4	0.042335227
250	0xbd33c058	-0.043884605
251	0x3e0b2bde	0.13590953
252	0xbbaa572b	-0.0051983795
253	0xbd8f9f4c	-0.07012805
254	0xbe039d99	-0.12853087
255	0x3dc16740	0.094435215

lstm.bias_hh_l0 f4 [256]
0	0x3df41f75	0.119200625
1	0x3b43cc35	0.0029876356
2	0x3be634f8	0.0070253573
3	0x3d5fdc38	0.054653376
4	0x3de97b46	0.11400466
5	0xbda7b037	-0.08187907
6	0xbda5e744	-0.08100751
7	0x3db50166	0.08838157
8	0x3cca38f7	0.024685366
9	0x3df55e0a	0.11980827
10	0xbd8a9bfc	-0.06768033
11	0xbcf270dc	-0.029594831
12	0xbd1823e5	-0.037143607
13	0xbdc0d79f	-0.094161265
14	0xbd30c669	-0.04315797
15	0xbd4e5eda	-0.050383426
16	0xbe0ddddb	-0.13854162
17	0x3deb8109	0.11499221
18	0x3da62fe0	0.081146
19	0xbc965b01	-0.01835394
20	0xbda66ccd	-0.08126221
21	0x3d9269cc	0.071490854
22	0x3d693fdd	0.05694567
23	0xbd86d470	-0.06583488
24	0xbb3ea4c1	-0.00290899
25	0xbd4d801f	-0.050171014
26	0x3db67d15	0.08910576
27	0xbe055139	-0.13019265
28	0xbc9fb814	-0.019496955
29	0xba92d46d	-0.0011202224
30	0xbd94e886	-0.07270913
31	0xbd562890	-0.052284777
32	0xbd4f2587	-0.0505729
33	0x3d2c088b	0.042000335
34	0xb9d40595	-0.0004043995
35	0xbdaa646d	-0.08319936
36	0xbd74e3db	-0.059787612
37	0x3df99361	0.121863134
38	0x3dcf303c	0.10116622
39	0xbd9a243b	-0.07526442
40	0xbd7db5ac	-0.061940834
41	0xbc9df796	-0.019283097
42	0x3c387e10	0.011260524
43	0x3e35846a	0.17726293
44	0x3ce80628	0.028323248
45	0xbd31a57f	-0.04337072
46	0xbd7b8594	-0.061406687
47	0x3e148bfc	0.14506525
48	0xbde5980b	-0.112106405
49	0x3aedf129	0.0018153536
50	0x3dae1913	0.08500876
51	0xbbd9dc8d	-0.006648606
52	0xbd411518	-0.047139257
53	0x3d2f2591	0.042760435
54	0xbbb3ced9	-0.0054873046
55	0xbd7f959d	-0.06239854
56	0xbda4b610	-0.08042538
57	0xbde46b2f	-0.11153256
58	0x3c219d24	0.009864125
59	0xbd01b371	-0.03166527
60	0x3e20a2ae	0.15687057
61	0x3e03e138	0.12878883
62	0xbe14e3d7	-0.14540039
63	0xbdd0ad9b	-0.101893626
64	0xbd01020a	-0.031496085
65	0xbc8ab18a	-0.01693036
66	0x3d8e3d73	0.06945314
67	0x3db35f12	0.087583676
68	0x3de11474	0.10990229
69	0xbcb096e2	-0.021556322
70	0xbc2f77f6	-0.010709753
71	0xbd9a6395	-0.07538525
72	0x3dddfa3c	0.10838744
73	0xbdf416f2	-0.11918439
74	0x3cb7df76	0.022445422
75	0xbe1b1ffc	-0.1514892
76	0xbd8d6253	-0.069035195
77	0xbdaa842e	-0.083259925
78	0xbc8ef33e	-0.017449971
79	0x3c9ec89c	0.019382767
80	0x3bc57d69	0.006026913
81	0x3d78fafb	0.06078623
82	0x3d9c3126	0.07626562
83	0xbda2a0ec	-0.0794085
84	0x3e0772c7	0.13227378
85	0x3cb8178c	0.022472166
86	0x3d8b9ac8	0.068166316
87	0xbc0ad2da	-0.0084731225
88	0xbe14af67	-0.14520036
89	0x3df98f3e	0.121855244
90	0xbdae7b14	-0.08519569
91	0xbb5324da	-0.003221801
92	0x3c181972	0.00928341
93	0xbd8058db	-0.06266948
94	0x3d6607df	0.05615985
95	0xbbe7ef74	-0.0070781056
96	0x3cb3b904	0.021938808
97	0xbdc05e6c	-0.093930095
98	0xbc8d0492	-0.017214093
99	0x3d5838f7	0.0527887
100	0xbdeea633	-0.11652794
101	0x3d7b6776	0.061377965
102	0xbc91622e	-0.017747011
103	0xbcf8850c	-0.03033688
104	0x3da35b4a	0.079763964
105	0x3d54a600	0.051916122
106	0xbd803466	-0.06259994
107	0x3cad2f0d	0.0211406
108	0x3d0b68a5	0.034035344
109	0x3da2ecf1	0.07955349
110	0x3d72eb31	0.059306327
111	0xbc446e80	-0.011989236
112	0x3d3f678e	0.046729617
113	0x3d9b7010	0.075897336
114	0x3be6d287	0.00704414
115	0x3d816497	0.06318014
116	0xbbe3f6ff	-0.0069569345
117	0x3e006330	0.12537837
118	0xbd4ef1be	-0.050523512
119	0x3d3558a3	0.044273984
120	0x3d7c348e	0.061573558
121	0x3d85dd75	0.0653638
122	0x3cdf8fa8	0.02729018
123	0x3b19341d	0.002337701
124	0xbcdb668b	-0.026782295
125	0x3d8a957a	0.06766792
126	0x3d0a0f0e	0.033705764
127	0xbe1b8580	-0.15187645
128	0x3ce7f088	0.028312936
129	0x3db3d24f	0.087803476
130	0x3d6096d5	0.054831345
131	0x3ddcf2f9	0.10788531
132	0xba43420f	-0.0007448503
133	0xbd68af25	-0.056807656
134	0x3dcd4535	0.10022966
135	0x3d450625	0.048101563
136	0x3d909830	0.070602775
137	0xbdad3de0	-0.08459067
138	0xbd76d9a6	-0.06026616
139	0xbcf6ab00	-0.030110836
140	0xbc55aaf3	-0.013041246
141	0x3d7d5c8d	0.06185584
142	0x3dd5e089	0.10443217
143	0x3d79cf20	0.060988545
144	0xbcbcde2d	-0.02305516
145	0xbc6bdbdc	-0.01439568
146	0x3d8a3207	0.06747823
147	0xbdb97b86	-0.09056763
148	0xbddf2385	-0.10895447
149	0xbd1c19a3	-0.038110387
150	0xbd9596ad	-0.0730413
151	0xbce7fbc5	-0.028318295
152	0xbd43ea42	-0.047830828
153	0xbdce73ee	-0.100807056
154	0xbd811490	-0.0630275
155	0xbd15409e	-0.036438577
156	0xbba86deb	-0.0051400564
157	0xbd9e2bd4	-0.07723203
158	0xbd32f295	-0.043688376
159	0xbd8cf8e4	-0.068834096
160	0x3dcbf71d	0.099592425
161	0xbd5a407e	-0.05328416
162	0x3db2bdac	0.08727583
163	0x3d5ce1a5	0.05392613
164	0x3ddaa72d	0.106764175
165	0x3dc7c2cf	0.09753954
166	0x3cc88c0a	0.024480838
167	0x3d9f3bf0	0.07775104
168	0xbd2e8cc4	-0.042614713
169	0x3d6971db	0.056993347
170	0xbdb29081	-0.08718968
171	0xbded25df	-0.11579489
172	0xbd6a0cfe	-0.057141297
173	0x3d3d3660	0.046194434
174	0x3d897170	0.067110896
175	0xbcdb218b	-0.026749393
176	0xbdaf1720	-0.085493326
177	0x3dc402dd	0.09570859
178	0x3de8aa66	0.11360626
179	0xbc5c33ad	-0.013440055
180	0xbd843ca2	-0.06456877
181	0xbda55a29	-0.08073837
182	0xbc860cf8	-0.016363606
183	0x3cf63971	0.030056687
184	0x3b9e2c37	0.004827048
185	0xbd0f2bb8	-0.034953803
186	0xbc82921c	-0.015938811
187	0x3dd8a640	0.10578585
188	0xbd052dc1	-0.032514337
189	0x3a36638d	0.0006957583
190	0xbca9dcad	-0.02073511
191	0x3db4e5a7	0.08832865
192	0x3c06e5bd	0.008233485
193	0xbd880521	-0.06641603
194	0xbdb746be	-0.0894904
195	0x3c8b1356	0.016976994
196	0x3d375f2c	0.044768497
197	0xbdca51cf	-0.09878885
198	0x3d49ab8d	0.04923587
199	0xbbe0003b	-0.006835965
200	0xbdd40a62	-0.10353543
201	0x3c06854d	0.008210492
202	0xbd5dc2d1	-0.05414087
203	0xbc99fb18	-0.018796489
204	0xbce02885	-0.027363071
205	0x3dba752d	0.09104381
206	0x3dea21df	0.11432242
207	0xbd3ddb10	-0.046351492
208	0xbdc76341	-0.09735728
209	0xbd62cf5b	-0.05537353
210	0x3dfd827c	0.123784035
211	0x3da38015	0.07983414
212	0x3cbe0739	0.023196803
213	0x3e0c70f1	0.13714959
214	0xbde5acd6	-0.112146065
215	0xbde3c4d1	-0.11121524
216	0x3d5c5d73	0.053800058
217	0xbd812860	-0.06306529
218	0x3bb5c154	0.005546728
219	0xbd893bc1	-0.0670085
220	0xbdea893d	-0.114519574
221	0x3bbcf22e	0.0057661748
222	0xbd7dee1c	-0.061994657
223	0x3e0d7903	0.13815694
224	0x3d639419	0.05556116
225	0xbe11c790	-0.14236283
226	0xbd7d5375	-0.06184717
227	0xbdea2ff9	-0.11434931
228	0x3cf2f408	0.029657379
229	0x3c9fb988	0.019497648
230	0x3d159b4b	0.036525052
231	0xbdfcb17d	-0.12338541
232	0x3d0ca0c7	0.034333017
233	0xbd69a0af	-0.057038005
234	0xbd828cd3	-0.06374516
235	0x3da8c227	0.082401566
236	0xbdc94544	-0.098276645
237	0x3d977808	0.07395941
238	0x3c952667	0.018206788
239	0xbdb486f8	-0.08814806
240	0xbbc23c8d	-0.0059276284
241	0x3dcd8982	0.10035993
242	0xbca3026d	-0.019898618
243	0xbd8e8972	-0.06959809
244	0x3df63566	0.12021904
245	0x3db11895	0.08647267
246	0x3d080845	0.03321101
247	0xbc1ffa83	-0.0097643165
248	0x3d84522b	0.06460985
249	0x3db0495d	0.08607743
250	0xbdeaa9a5	-0.114581384
251	0xbd9dbe9b	-0.07702371
252	0x3d9c0a1c	0.07619116
253	0xbd6b13ee	-0.057392053
254	0x3d0a4be7	0.033763792
255	0xbdef670f	-0.11689579

out.weight f4 [1, 64]
0	0xbdb9b890	-0.09068406
1	0x3dc8a29e	0.09796642
2	0xbd9b79fc	-0.07591626
3	0x3d92b966	0.07164268
4	0xbdc4ca0a	-0.096088484
5	0x3e03b6f0	0.12862754
6	0x3e1e604c	0.15466422
7	0x3e1902cf	0.14942478
8	0x3d3d2701	0.046179775
9	0xbd9cb0c0	-0.076509
10	0xbe109b6a	-0.14121786
11	0xbe08bdb2	-0.13353613
12	0x3dac633d	0.08417366
13	0x3c8c804f	0.017151026
14	0x3e310f24	0.17290932
15	0x3dd4b2c9	0.10385663
16	0x3d0f2229	0.034944687
17	0x3e0da3d5	0.13832028
18	0xbe059493	-0.13044958
19	0x3e10ccf1	0.14140679
20	0xbe320819	-0.17385902
21	0x3e34805e	0.17627093
22	0xbe20b8b7	-0.15695463
23	0x3d635c1d	0.055507768
24	0xbde7d47f	-0.11319827
25	0xbdbc048b	-0.09180554
26	0x3d97d1ad	0.07413039
27	0xbdb62242	-0.08893253
28	0xbaab8f9d	-0.0013089065
29	0xbe08ba4b	-0.13352315
30	0x3e3cb4ad	0.18428297
31	0xbe1eb602	-0.15499118
32	0x3e281bb1	0.16416813
33	0x3cb5d784	0.022197492
34	0xbafb97d1	-0.0019195025
35	0x3d87c6a8	0.066296875
36	0xbdc0ad60	-0.09408069
37	0x3dccfd78	0.10009283
38	0x3b1e3adb	0.0024143967
39	0x3cebac69	0.028768735
40	0x3e2bb6d7	0.16768967
41	0x3d48f07b	0.049057465
42	0xbe2b9f4d	-0.16759987
43	0xbe197842	-0.14987281
44	0x3d00bee7	0.03143206
45	0xbe07fd5f	-0.13280247
46	0xbcde0f12	-0.027106795
47	0xbdd399cf	-0.10332071
48	0x3dac4120	0.08410859
49	0x3e422e1c	0.18962902
50	0x3e2d7abe	0.16941354
51	0xbe3a1b61	-0.18174507
52	0x3dd50f17	0.10403269
53	0xbdb7c6fc	-0.089735
54	0x3bbedc66	0.0058246134
55	0x3d77d6ab	0.060507458
56	0xbd05214e	-0.032502465
57	0xbd257887	-0.040398147
58	0xbda257c6	-0.07926898
59	0x3e0ca089	0.13733114
60	0x3e3a4ccf	0.18193363
61	0xbe2f6414	-0.1712802
62	0xbd5f4a88	-0.054514438
63	0xbe0ea23e	-0.13929078
